Assignment2/model.ckpt (torch, 29919 bytes, 6 tensors)

layer1.0.weight f4 [6, 3, 5, 5]
0	0xbd457028	-0.048202664
1	0xbe23f077	-0.16009699
2	0xbe9a03ae	-0.30080932
3	0xbebd8053	-0.37011966
4	0xbec67385	-0.3876001
5	0xbde2d078	-0.110749185
6	0xbd892272	-0.06696023
7	0x3c84fd52	0.016234074
8	0xbcb3b69e	-0.021937665
9	0xbd9b36cb	-0.0757881
10	0x3e2d46f7	0.16921602
11	0x3e691ee2	0.22765687
12	0x3ea16429	0.3152173
13	0x3eac5362	0.33657366
14	0x3e8aab64	0.27083886
15	0x3c856a55	0.016286055
16	0x3e2469ee	0.16056034
17	0x3e41f40a	0.1894075
18	0x3e7ed3c6	0.24885473
19	0x3db7a407	0.089668326
20	0x3b36fd25	0.0027921882
21	0xbda24a25	-0.07924298
22	0xb9f9e5b4	-0.00047664123
23	0x3daa4d1d	0.083154894
24	0xbd4acb5a	-0.049510337
25	0xbe1888f6	-0.14895996
26	0xbe1ae917	-0.15127979
27	0xbeb568b0	-0.35431433
28	0xbe6a2d8c	-0.22868937
29	0xbe4099e8	-0.1880871
30	0xbd54cb19	-0.0519515
31	0xbc169c8d	-0.009192598
32	0xbe0a5061	-0.13507225
33	0xbdc58eb4	-0.09646359
34	0xbde9da8e	-0.11418639
35	0xbd434569	-0.047673617
36	0x3e03516c	0.12824029
37	0x3e833f89	0.2563441
38	0x3e8d7870	0.2763095
39	0x3e402acf	0.1876633
40	0xbd9af56c	-0.07566342
41	0x3d9cabd7	0.07649963
42	0x3d677980	0.056512356
43	0x3defdd5d	0.117121436
44	0x3deed6ea	0.11662085
45	0x3d0e3aad	0.034723926
46	0x3d9e365c	0.07725212
47	0x3d223856	0.039604507
48	0xbd29caa4	-0.04145302
49	0x3c84476b	0.016147336
50	0x3d9932d2	0.07480396
51	0xbb9b0f5a	-0.0047320547
52	0xbe0e2f8f	-0.1388533
53	0xbdbdb1d5	-0.092624344
54	0xbe0720ae	-0.1319606
55	0xbd3d7c21	-0.046260957
56	0x3d21d0e7	0.039505865
57	0xbd540f7b	-0.051772576
58	0xbcaf3db8	-0.021391734
59	0x3dd665fb	0.1046867
60	0xbd254269	-0.040346537
61	0x3e0f94eb	0.14021651
62	0x3d758c73	0.059948396
63	0x3e7ec03b	0.24878018
64	0x3e319dec	0.17345399
65	0x3d1f0163	0.03881968
66	0x3d6ca7fe	0.057777397
67	0xbddbc385	-0.10730652
68	0x3d9e0a92	0.0771686
69	0xbd5724e4	-0.052525416
70	0xbda822de	-0.082097754
71	0xbdf6cac2	-0.12050392
72	0xbc3be843	-0.01146895
73	0xbdfba382	-0.12287046
74	0xbdd006d0	-0.101575494
75	0xbc8634f3	-0.01638267
76	0xbe0d91c6	-0.1382514
77	0xbdc68c0a	-0.09694679
78	0x3d1d5e13	0.038419794
79	0xbda6a885	-0.08137611
80	0x3d5768c1	0.052590135
81	0xbe54b016	-0.20770296
82	0x3d630329	0.055422936
83	0x3d1bd654	0.038046196
84	0xbe2e3dde	-0.17015788
85	0xbca88874	-0.020572878
86	0x3d083433	0.033252906
87	0x3b3980fc	0.002830564
88	0xbcecd937	-0.02891217
89	0xbde1fb94	-0.11034313
90	0xbdf7c1e0	-0.120975256
91	0x3e28a1c4	0.16467959
92	0x3ded8631	0.115978606
93	0xbcd144e1	-0.02554554
94	0xbe0fae34	-0.14031297
95	0x3db220a3	0.08697631
96	0x3c81728d	0.015801692
97	0xbd16aa1e	-0.03678333
98	0x3cd65d57	0.026167555
99	0x3dac22e0	0.084050894
100	0x3de19b52	0.11015953
101	0x3d5c3180	0.053758144
102	0x3d98c2f2	0.07459058
103	0x3e17d2ed	0.14826556
104	0xbdb95f21	-0.090513475
105	0x3e42022f	0.18946145
106	0xbd86d4d7	-0.06583565
107	0x3e2c0a42	0.16800788
108	0x3d4dee74	0.050276235
109	0x3d98476f	0.074355
110	0x3dddfa7f	0.10838794
111	0x3ddd6b8e	0.1081153
112	0x3d93e819	0.072220035
113	0x3db40afd	0.08791158
114	0xbcb9f4ac	-0.022699676
115	0x3c8e8c5d	0.017400915
116	0x3e20d450	0.15705991
117	0x3e4d8430	0.20069957
118	0xbcbc76d8	-0.023005888
119	0xbe1f1dc4	-0.15538698
120	0x3e5ad799	0.21371306
121	0x3e206801	0.15664674
122	0xbdee9260	-0.116490126
123	0xbd86ed81	-0.06588269
124	0x3e3b7b94	0.1830886
125	0x3d87ad00	0.06624794
126	0xbdf535fc	-0.11973187
127	0x3df7a13e	0.120913014
128	0x3cf4c2a4	0.029877968
129	0x3d24daf2	0.040247865
130	0x3d446652	0.047949143
131	0xbe52a7f9	-0.20571889
132	0x3aec8bb3	0.0018047005
133	0x3d898007	0.067138724
134	0x3d83deea	0.06439002
135	0x3c59444a	0.01326091
136	0xbd36b204	-0.044603363
137	0xbcdc2edc	-0.026877813
138	0x3d8c3077	0.068451814
139	0xbe30a4f3	-0.17250423
140	0xbe2d6e6c	-0.16936654
141	0x3e40f702	0.18844226
142	0x3db7b928	0.089708626
143	0xbc512ed9	-0.012767517
144	0xbe528963	-0.20560221
145	0xbcd25ab6	-0.02567802
146	0x3dd73d6b	0.105097614
147	0xbe1f5fd1	-0.15563895
148	0xbc665e81	-0.014060617
149	0xbdadcff9	-0.08486933
150	0x3e026c80	0.12736702
151	0x3e00aef6	0.12566742
152	0x3e11ea4c	0.14249533
153	0xbc9e1ddf	-0.019301353
154	0xbda6bccd	-0.0814148
155	0x3e2eb817	0.17062412
156	0x3e249da6	0.16075763
157	0x3db28a28	0.087177575
158	0xbe456704	-0.19277579
159	0xbe695cb8	-0.22789276
160	0x3e488b9b	0.19584505
161	0x3c8f40c0	0.01748693
162	0x3d05ef27	0.032698777
163	0xbe25d7a0	-0.16195536
164	0xbd85d375	-0.06534473
165	0x3d0fcf27	0.035109665
166	0x3e0bb94b	0.13644902
167	0xbe4972ee	-0.19672748
168	0xbe90a325	-0.2824947
169	0xbe06f137	-0.13177954
170	0x3dd1caf3	0.102437876
171	0xbde153f4	-0.11002341
172	0xbd054fb0	-0.0325467
173	0xbe2f9576	-0.17146859
174	0xbe1b6b9b	-0.15177767
175	0xbd1286cc	-0.035773084
176	0x3d86d997	0.06584471
177	0xbd95dad9	-0.073171325
178	0xbd867ae5	-0.06566409
179	0xbe911073	-0.28332862
180	0x3dfea598	0.12433928
181	0x3e693171	0.22772767
182	0x3da8bdb9	0.08239312
183	0xbe8d61b5	-0.27613607
184	0xbe420eed	-0.18951006
185	0x3de61f8d	0.112364866
186	0x3e009449	0.12556566
187	0x3dc9c2b6	0.09851591
188	0xbe94a5aa	-0.29032642
189	0xbdf3bacd	-0.11900864
190	0x3e18615e	0.14880893
191	0x3d9de72b	0.077101074
192	0xbd838bfb	-0.064231835
193	0xbe2fb0cb	-0.17157285
194	0xbc921b3f	-0.017835258
195	0x3e52edf7	0.20598589
196	0x3deff150	0.117159486
197	0xbc0b9e86	-0.008521682
198	0xbc2c0a3a	-0.010500485
199	0x3ddae16c	0.10687527
200	0x3d8ee058	0.06976384
201	0x3dfd6d7e	0.123743996
202	0xbdb85827	-0.09001189
203	0xbe25372e	-0.1613433
204	0xbe8b9c24	-0.27267563
205	0x3d9efc19	0.077629276
206	0x3dbac050	0.09118712
207	0x3e0b1979	0.13583936
208	0xbe8dcd7a	-0.2769583
209	0xbe0ad08e	-0.1355612
210	0x3e2d7547	0.16939269
211	0x3e3e36ca	0.18575588
212	0xbda2aea8	-0.07943469
213	0xbe8d4bb2	-0.27596813
214	0xbd172d9c	-0.03690873
215	0x3e8289c7	0.2549574
216	0x3e996ebf	0.29967305
217	0xbddc7573	-0.10764589
218	0xbe692f00	-0.22771835
219	0x3d10e7d5	0.035377342
220	0x3e82fa4f	0.25581595
221	0x3e073417	0.13203464
222	0xbd36520d	-0.044511843
223	0x3ca3c94a	0.019993443
224	0xbc5150c4	-0.012775604
225	0x3db34830	0.08754003
226	0x3dd12741	0.10212565
227	0x3d86a9e3	0.06575372
228	0xbdbe94db	-0.09305736
229	0xbd5f4443	-0.05450846
230	0x3d9ac839	0.07557721
231	0x3ddf2ba2	0.10896994
232	0x3ce6b7da	0.02816384
233	0x3dc14677	0.09437268
234	0xbc90ed01	-0.017691137
235	0x3e1fce95	0.15606149
236	0x3e09aa3d	0.13443847
237	0x3c838715	0.016055623
238	0xbd342d69	-0.04398862
239	0x3b0c93ed	0.0021450475
240	0x3e1572e0	0.14594603
241	0x3d0ccb5d	0.03437363
242	0x3d7e5081	0.062088493
243	0x3da78694	0.081799656
244	0x3dc82717	0.09773081
245	0x3d47da50	0.048792183
246	0x3e1ef8a9	0.15524544
247	0x3e5d4e53	0.2161191
248	0x3d253945	0.04033782
249	0x3e1efe23	0.15526633
250	0xbde79908	-0.11308485
251	0x3d07068c	0.032965228
252	0x3d953d36	0.07287066
253	0x3c3b5f9c	0.011436369
254	0xbe03de3e	-0.12877747
255	0xbdd20783	-0.10255339

layer1.0.bias f4 [6]
0	0x3c028ca6	0.0079681035
1	0x3f4498f0	0.76795864
2	0x3e65800d	0.22412129
3	0x3ea7b19a	0.32752687
4	0x3e4f5ced	0.20250292
5	0x3ee892fb	0.45424637

layer2.0.weight f4 [16, 6, 5, 5]
0	0x3d29bfb7	0.0414426
1	0x3cdec507	0.02719356
2	0x3ba3d039	0.0049991873
3	0xbd985436	-0.07437937
4	0xbd90e613	-0.07075133
5	0x3c9af000	0.018913269
6	0x3be9ce08	0.0071351565
7	0xbd38f0bf	-0.04515147
8	0x3c062dce	0.008189632
9	0x3ce3c219	0.027802514
10	0xbda19dab	-0.07891401
11	0x3bb1afdb	0.005422575
12	0x3ccf0f08	0.025275722
13	0xbd916204	-0.07098773
14	0x3b29f46e	0.0025933045
15	0xbcbbbf47	-0.022918357
16	0x3cf76736	0.030200582
17	0xbbc77c0a	-0.0060877847
18	0xbdc27dec	-0.09496674
19	0xbcb634d8	-0.022241995
20	0x3dfb324a	0.12265451
21	0x3da7b5c0	0.08188963
22	0xbcfafbfe	-0.030637737
23	0xbd6d3d0a	-0.05791954
24	0x3aaa31fc	0.0012984867
25	0x3a05ad44	0.0005099366
26	0xbd45bb86	-0.04827454
27	0x3d45c3c5	0.048282403
28	0x3d0cb5d9	0.03435311
29	0xbcd96ae9	-0.026540237
30	0xbd93700c	-0.071991056
31	0xbce6a380	-0.028154135
32	0x3d6a2885	0.05716755
33	0x3ccd12a5	0.025033304
34	0x3cff0e28	0.03113468
35	0x3d60322a	0.05473534
36	0xbcd4105d	-0.025886709
37	0xbd85f45e	-0.0654075
38	0xbba74075	-0.0051041194
39	0x3d7b34fa	0.06132982
40	0x3d5cfd1f	0.053952333
41	0xbcb081c4	-0.021546252
42	0xbd19ff82	-0.037597187
43	0xbc3b76c6	-0.011441892
44	0x3d6796fb	0.05654047
45	0x3d066cfe	0.032818787
46	0x3cedfcf4	0.029051282
47	0x3c98466d	0.01858827
48	0xbd18a593	-0.03726728
49	0x3d9705eb	0.07374176
50	0xbc71e541	-0.014764131
51	0xbda3494a	-0.07972963
52	0xbcb29fd6	-0.021804731
53	0xbd5613a7	-0.052264836
54	0xbd8007a2	-0.06251456
55	0xbd9ec8d4	-0.07753149
56	0xbdc7e83d	-0.09761093
57	0xbddf3551	-0.10898841
58	0xbd3ea1bc	-0.04654096
59	0xbcd2eedb	-0.02574866
60	0xbc5f5498	-0.013631009
61	0xbddb4150	-0.10705817
62	0xbd6c40dc	-0.057679042
63	0xbc8f966b	-0.01752778
64	0xbdb9e5ab	-0.09077009
65	0xbc453fcf	-0.012039139
66	0x3d9a8c1a	0.075462535
67	0xbcebc6f7	-0.028781397
68	0xbd9082c0	-0.070561886
69	0xbdc4c529	-0.09607918
70	0xbc2ec077	-0.010666004
71	0x3db76149	0.089541025
72	0x3db86647	0.09003883
73	0xbd7c5c60	-0.061611533
74	0x3ce9bf2b	0.028533539
75	0xbd9e1b67	-0.0772007
76	0x3d9138f2	0.070909396
77	0xbd51228d	-0.05105834
78	0x3d4b377a	0.049613453
79	0x3baab1cd	0.005209184
80	0xbd8c5fa2	-0.06854178
81	0x3caeafce	0.021324065
82	0x3cfa4ab1	0.030553194
83	0xbbf7cb1c	-0.0075620543
84	0x3ca3104b	0.01990523
85	0xbdb682aa	-0.08911641
86	0x3d087dde	0.03332316
87	0x3db4df01	0.08831597
88	0x3d97e5ee	0.074169025
89	0xbcfadba0	-0.030622303
90	0x3d070457	0.032963123
91	0xbdcb00e6	-0.09912281
92	0x3d7f7c72	0.06237454
93	0xbc444142	-0.011978449
94	0x3de98b40	0.11403513
95	0x3c156d7c	0.009120341
96	0x3c3dcb67	0.011584139
97	0xbd4ca22d	-0.04995935
98	0x3cdbaa8c	0.026814722
99	0x3d82f9f9	0.06395335
100	0x3d9357be	0.0719447
101	0x3d9e298d	0.07722769
102	0x3d0e5317	0.03474721
103	0xbd88bc8f	-0.0667659
104	0x3d586ac7	0.052836206
105	0x3d466478	0.04843566
106	0x3bb3d577	0.0054880935
107	0xbbf3d7ba	-0.007441488
108	0x3d94cfee	0.07266222
109	0xbdc41ef0	-0.09576213
110	0xbcd62fd7	-0.026145859
111	0x3dca7357	0.098852806
112	0x3d16fbc9	0.036861215
113	0x3d3825ef	0.04495805
114	0x3d33ab96	0.04386481
115	0x3d15a34d	0.03653269
116	0x3d99282b	0.074783646
117	0x3d45cc67	0.048290636
118	0x3dd3bf5c	0.10339233
119	0x3deb0cbc	0.11477038
120	0xbdb49253	-0.08816972
121	0xbce06cac	-0.027395569
122	0xbd401745	-0.04689719
123	0xbd3a8357	-0.04553541
124	0x3d8e1340	0.069372654
125	0xbcebc01d	-0.02877813
126	0xbdad59fa	-0.08464427
127	0xbda1d110	-0.07901204
128	0xbd8f3e92	-0.06994356
129	0xbd008b57	-0.031382885
130	0x3c54dcb1	0.01299207
131	0xbd7ba44a	-0.061435975
132	0x3bb59d39	0.005542424
133	0x3d13feeb	0.03613178
134	0xbd58a199	-0.052888487
135	0xbd951aa4	-0.07280472
136	0xbaa83479	-0.0012833021
137	0xbda49475	-0.080361284
138	0xbc7708c6	-0.015077775
139	0x3da83a1c	0.082142085
140	0x3a0ad5a9	0.000529612
141	0xbd2a66ae	-0.04160183
142	0x3d802224	0.06256512
143	0x3d30d8a1	0.043175343
144	0xbd00c414	-0.031436995
145	0x3d369254	0.044573143
146	0x3db3aa97	0.08772772
147	0xbd00f86a	-0.031486906
148	0xbbf6a419	-0.007526886
149	0x3c56092b	0.013063709
150	0xbc47c08e	-0.012191905
151	0xbbb40fbc	-0.0054950397
152	0x3d8b8bf9	0.06813807
153	0x3bbd3f53	0.005775371
154	0xbda49b2f	-0.080374114
155	0xbdc6db35	-0.09709779
156	0xbd14c5eb	-0.03632156
157	0x3d0af385	0.033923645
158	0xbd036675	-0.032080133
159	0xbdb01061	-0.08596874
160	0xbd52e0b0	-0.05148381
161	0x3c01f3a8	0.007931627
162	0xbc8c959e	-0.017161187
163	0xbce72d22	-0.028219763
164	0x3db12505	0.08649639
165	0x3e11b2c7	0.14228354
166	0x3d863760	0.06553531
167	0xbca06add	-0.019582206
168	0xbde2c7c0	-0.110732555
169	0x3cf5a75a	0.029987026
170	0x3d1d1ebf	0.0383594
171	0x3caea989	0.021321075
172	0x3d9eb17b	0.077486955
173	0xbc8d4c72	-0.017248366
174	0xbd93b428	-0.072120965
175	0x3cb77631	0.022395225
176	0x3d3bcfc8	0.045852453
177	0x3db4025d	0.08789513
178	0x3dc6654e	0.09687291
179	0xbc233eed	-0.009963733
180	0xbd012e00	-0.03153801
181	0xbcbecece	-0.023291972
182	0xbd3fac7e	-0.04679536
183	0x3dc3ff22	0.09570147
184	0x3c151728	0.009099759
185	0x3bc47280	0.005995095
186	0xbdadba74	-0.08482829
187	0xbe0b4c76	-0.13603386
188	0xbdeefd32	-0.11669387
189	0xbdb506f0	-0.08839214
190	0xbcf71af2	-0.030164216
191	0xbabc4216	-0.0014362957
192	0xbdc35246	-0.09537177
193	0xbe24c1a5	-0.16089495
194	0xbe262c22	-0.16227773
195	0xbdb9c817	-0.09071367
196	0xbde40d83	-0.1113539
197	0x3bc4f8c1	0.006011099
198	0xbdd38469	-0.103279896
199	0xbdbc4f6e	-0.091948375
200	0xbd9c74ef	-0.07639491
201	0xbdcf71ea	-0.10129149
202	0xbc095080	-0.008381009
203	0xbc890077	-0.016723854
204	0x3d34bff7	0.044128384
205	0x3d073850	0.03301269
206	0xbd92b6a2	-0.07163741
207	0xbbc5cea3	-0.006036596
208	0x3d2c0714	0.041998938
209	0x3d0e2895	0.03470667
210	0x3df9cc85	0.12197212
211	0x3c7c84ae	0.015412493
212	0xbc7f44a5	-0.015580331
213	0x3cb7596e	0.02238151
214	0x3e0a7c78	0.13524044
215	0x3e36999b	0.17832033
216	0x3e20986d	0.15683146
217	0x3e1fb696	0.15596995
218	0x3d3c7841	0.04601312
219	0xba8ac783	-0.0010588024
220	0x3def5907	0.116869025
221	0x3e840c67	0.25790712
222	0x3e81bb63	0.25338277
223	0x3e1cf40a	0.15327469
224	0x3d1b7f9e	0.037963502
225	0xbd444391	-0.047916
226	0xbce7825e	-0.028260406
227	0xbd9d85d6	-0.07691543
228	0xbc16ff48	-0.009216137
229	0xbbace644	-0.0052764732
230	0x3c4286bf	0.011872946
231	0x3d75814c	0.05993776
232	0xbd199399	-0.037494276
233	0xbb099092	-0.0020990712
234	0x3d0ddec1	0.034636263
235	0xbd946b37	-0.07247012
236	0xbd97e4e8	-0.07416707
237	0x3d4be6f6	0.04978081
238	0x3d7b455b	0.06134544
239	0x3d37ff44	0.044921175
240	0x3d0639a7	0.032769825
241	0xbd562e6d	-0.05229037
242	0xbda74040	-0.081665516
243	0x3b7f7bd8	0.0038983729
244	0xbde45285	-0.11148552
245	0x3d5ca252	0.05386574
246	0xbd2e4dda	-0.042554714
247	0xbd96b08c	-0.073578924
248	0xbd93e2b4	-0.072209746
249	0xbd9ffbac	-0.078116745
250	0xbcbbb92b	-0.022915443
251	0xbc73987d	-0.014867899
252	0x3d203249	0.039110456
253	0x3be9739e	0.0071243783
254	0x3d4e2d94	0.050336435
255	0xbd482d30	-0.04887122

layer2.0.bias f4 [16]
0	0xbd863d84	-0.06554702
1	0x3e652a1b	0.22379343
2	0x3df18ec3	0.11794808
3	0xbd8cac11	-0.068687566
4	0x3d10ae0f	0.035322245
5	0xbe03334d	-0.12812538
6	0xbe40b094	-0.18817359
7	0xbdaa4a43	-0.083149455
8	0xbe3127e3	-0.17300372
9	0xbe6ace36	-0.22930226
10	0xbdb713e3	-0.0893934
11	0x3e877a26	0.2646038
12	0x3e4d7422	0.20063832
13	0xbcd06a9d	-0.025441462
14	0xbc836549	-0.016039507
15	0xbdaa085a	-0.08302374

fc.weight f4 [10, 400]
0	0x3d890a0a	0.06691368
1	0x3c39a0e9	0.011329868
2	0x3c66390c	0.014051687
3	0x3b04931b	0.0020229283
4	0xbc41f024	-0.011837039
5	0x3d5ec602	0.054388054
6	0x3daedd29	0.08538277
7	0x3d7350d0	0.05940324
8	0xbccb549e	-0.024820622
9	0x3c937f55	0.018005053
10	0x3d4beaf6	0.049784623
11	0xbcb1102c	-0.021614157
12	0xbd254c83	-0.04035617
13	0xbbbf3304	-0.005834939
14	0x3cf4376e	0.029811587
15	0x3c043f39	0.008071714
16	0xbce36478	-0.027757868
17	0xbc73d091	-0.014881269
18	0x3d2df546	0.04247024
19	0x3d0f2bd4	0.034953907
20	0xbd4bbd44	-0.049741045
21	0xbc42ffd8	-0.011901818
22	0xbba9a07e	-0.005176603
23	0xbcf8aec4	-0.030356772
24	0x3d9a2e0e	0.075283155
25	0x3cd0db6a	0.02549525
26	0x3dbc5796	0.09196393
27	0x3c28aef7	0.010295621
28	0x3ba950e8	0.0051671155
29	0xbd9f91b5	-0.07791463
30	0x3d8e06b6	0.06934874
31	0x3d8ab846	0.067734286
32	0x3d548305	0.051882762
33	0xbc1ce393	-0.009575742
34	0xbd598d14	-0.05311306
35	0x3b7f7814	0.0038981484
36	0x3de4001d	0.11132834
37	0x3c901c19	0.017591523
38	0x3c798112	0.015228527
39	0xbd00fd73	-0.031491708
40	0xbd7e3baa	-0.06206862
41	0x3d952611	0.07282651
42	0x3c04409e	0.008072047
43	0x3ca6915d	0.020332986
44	0x3d403ee7	0.04693499
45	0xbe0a5039	-0.13507165
46	0xbc7928b8	-0.015207462
47	0xbd8a8178	-0.067629755
48	0xbcae68a0	-0.021290123
49	0xb96883bd	-0.0002217432
50	0xbd8bd77d	-0.068282105
51	0xbd521820	-0.05129254
52	0x3b799bc9	0.003808724
53	0xbcc2ccba	-0.023779262
54	0xbda547ec	-0.08070359
55	0xbbb8a7ca	-0.0056352364
56	0xbd1ec2d7	-0.038760033
57	0xbd076779	-0.033057664
58	0xbcc55f4f	-0.024093298
59	0xbc284527	-0.010270393
60	0xbca94ebd	-0.020667428
61	0x3a4c3a34	0.00077906554
62	0xbc591aab	-0.013250987
63	0xbd37c18b	-0.04486231
64	0x3be2f82c	0.006926557
65	0xbcee575f	-0.029094396
66	0x3d67aa15	0.056558687
67	0x3cf47908	0.029842868
68	0xbc1953c2	-0.009358348
69	0xbd1d290b	-0.03836922
70	0x3cc4c824	0.024021216
71	0x3d154bf1	0.036449376
72	0xbae9ca0a	-0.0017836702
73	0x3b934269	0.0044940007
74	0x3c812ef8	0.015769467
75	0xbd694440	-0.056949854
76	0x3ca47fdd	0.020080501
77	0x3d000589	0.03125528
78	0xbd6e6d52	-0.058209725
79	0xbd2874d2	-0.041127034
80	0xbd021702	-0.031760223
81	0xbcb00d9c	-0.021490864
82	0xbce02d12	-0.027365241
83	0xbb938102	-0.004501463
84	0xbc9efa7e	-0.019406553
85	0x3d3b57fe	0.045738213
86	0x3d08fd04	0.03344442
87	0xbc7385e8	-0.014863469
88	0xbbb879db	-0.0056297607
89	0x3c42acfc	0.011882063
90	0xbbb76cca	-0.0055976855
91	0x3ca5149d	0.02015143
92	0xbc97dea1	-0.018538775
93	0xbcdfec01	-0.027334215
94	0xbc897d41	-0.016783359
95	0xbcbdbf67	-0.023162557
96	0x3d05ff66	0.03271427
97	0xbc9d1372	-0.019174311
98	0xbd7f97d3	-0.06240065
99	0x3d10c95d	0.035348285
100	0x3dc8e5f1	0.09809483
101	0x3db0819e	0.086184725
102	0x3d33ecf8	0.043927163
103	0x3d16f575	0.03685518
104	0x3d5a7a02	0.053339012
105	0x3db18c31	0.086693175
106	0x3d9e0242	0.077152744
107	0x3dccc293	0.099980496
108	0x3dba839b	0.09107133
109	0x3ca1bc7b	0.019743195
110	0x3ce57193	0.028008258
111	0x3cb8800d	0.022521997
112	0x3d31bdb4	0.043393806
113	0xba9bca1a	-0.0011885792
114	0x3d829b84	0.063773185
115	0xbd0f7511	-0.035023753
116	0x3cb8af1a	0.022544432
117	0xbcd8e9a6	-0.0264786
118	0xbd04ef25	-0.03245463
119	0x3cb551d4	0.022133745
120	0x3c0179f3	0.00790261
121	0xbd780a28	-0.06055656
122	0xbbed2fab	-0.0072383485
123	0x3d596d6b	0.053082865
124	0x3d441078	0.04786727
125	0xbd7d27db	-0.061805587
126	0x3c14b0d4	0.009075362
127	0x3d5d316d	0.054002214
128	0x3d22e797	0.039771643
129	0xbbda92bd	-0.0066703246
130	0x3b997164	0.0046827067
131	0x3d62a8f5	0.05533691
132	0x3d9d37ca	0.076766565
133	0x3dec52a0	0.11539197
134	0x3d8e3628	0.06943923
135	0x3aa5a93d	0.0012638938
136	0x3d25aed4	0.040449932
137	0x3c71a990	0.0147498995
138	0x3d2c487e	0.04206132
139	0x3d6f1d98	0.058377832
140	0x3da04452	0.07825531
141	0x3d878194	0.06616512
142	0x3d43bf27	0.04778972
143	0xbc88c5b6	-0.016695838
144	0xbdfa6da6	-0.12227945
145	0xbcf5b9d5	-0.029995838
146	0x3c571600	0.013127804
147	0x3c2a1cf9	0.010382884
148	0xbd3a769b	-0.045523267
149	0xbe2a2894	-0.16617042
150	0x3d945e87	0.07244592
151	0x3c7ffb35	0.015623857
152	0xbc91a7ab	-0.017780146
153	0x3d4b6a8f	0.04966217
154	0x3d814c36	0.06313364
155	0x3d45807d	0.04821824
156	0x3d940204	0.07226947
157	0xbc945a6c	-0.018109523
158	0x3cac8d40	0.021063447
159	0x3d8e74f6	0.06955902
160	0x3e0eea2d	0.13956518
161	0x3da132eb	0.0787104
162	0x3d7a7e5d	0.061155666
163	0x3c4558a5	0.01204506
164	0x3dd308b6	0.10304396
165	0x3d5ee32c	0.054415867
166	0x3d08ddb8	0.033414572
167	0x3c5af5b7	0.013364247
168	0x3c966a61	0.018361272
169	0x3ca9e900	0.020740986
170	0xbd80dc4c	-0.06292018
171	0xbd7de584	-0.06198646
172	0xbd07dfca	-0.033172406
173	0x3c1dc2c3	0.009628954
174	0x3c0e3b40	0.0086811185
175	0xbd4a819d	-0.049440015
176	0x3bb63675	0.005560691
177	0xbd2f5935	-0.042809684
178	0xbd887fa3	-0.0666497
179	0xbd08165b	-0.033224445
180	0xbd468891	-0.048470084
181	0xbd386713	-0.045020174
182	0xbc8b4cf5	-0.01700447
183	0x3c2b711d	0.01046398
184	0xb9c36683	-0.00037269676
185	0xbcf5e874	-0.030018069
186	0xbca290de	-0.019844469
187	0x3d9cbe97	0.0765354
188	0x3d5353a4	0.051593438
189	0xbd153cc0	-0.03643489
190	0xbd9e546a	-0.077309445
191	0xbd68aae0	-0.056803584
192	0x3d6e8c79	0.058239434
193	0x3d97057e	0.073740944
194	0xbd393f4c	-0.04522638
195	0xbdb6329e	-0.08896373
196	0x3c1be9b5	0.009516169
197	0xbd2c438c	-0.042056605
198	0x3ca18334	0.019715883
199	0x3bd38c96	0.006455968
200	0x3c1616e8	0.009160735
201	0xbd905cdd	-0.07048962
202	0xbd3518f7	-0.04421326
203	0xbdab0f27	-0.083524995
204	0xbd05d00d	-0.032669116
205	0x3d53bbb6	0.051692687
206	0x3d902959	0.070391364
207	0xbd00ff5a	-0.031493522
208	0x3cab09c3	0.020878678
209	0xbd1ae13e	-0.037812464
210	0x3d929f6a	0.07159312
211	0x3d099aad	0.033594776
212	0xbd007b20	-0.03136742
213	0xbcbc45f8	-0.022982582
214	0xbc815a5f	-0.015790163
215	0xbb7fba97	-0.0039021128
216	0x3d98762c	0.074444145
217	0xbcdcceb0	-0.026954025
218	0xbce1fca6	-0.027586292
219	0xbde1601c	-0.110046595
220	0xbd7d6106	-0.061860107
221	0x3d280c89	0.04102758
222	0xbd3df439	-0.046375487
223	0xbd96e536	-0.07367937
224	0xbe097c6a	-0.13426366
225	0xbd47d98d	-0.048791457
226	0xbdb47f70	-0.08813369
227	0xbe0af917	-0.13571583
228	0xbd9b7a35	-0.075916685
229	0xbd3e5c37	-0.04647466
230	0x3b9de486	0.004818502
231	0xbd25d4f7	-0.040486302
232	0xbd319d2b	-0.043362778
233	0xbd4a77bb	-0.04943059
234	0x3dd46901	0.103715904
235	0xbb98ebcf	-0.0046667824
236	0x3bf80cf9	0.007569906
237	0x3d2c659f	0.0420891
238	0x3d6f546f	0.05843013
239	0x3d605f29	0.05477825
240	0xbc8ba4ed	-0.017046416
241	0x3dc9014d	0.09814701
242	0x3dab89ac	0.08375868
243	0x3ce98e03	0.0285101
244	0x3d6a8c2b	0.05726258
245	0xbb2740bb	-0.002552076
246	0x3d0e8211	0.03479201
247	0x3aae73c1	0.0013309644
248	0xbc744999	-0.014910125
249	0xbd1f5a07	-0.038904216
250	0x3d9b0619	0.075695224
251	0x3d989fbc	0.07452342
252	0x3cae7caa	0.021299679
253	0x3d7b0862	0.06128729
254	0x3b32ff4a	0.0027312809
255	0xbc9bc0f9	-0.019012915

fc.bias f4 [10]
0	0xbdcbf545	-0.09958891
1	0xbe1b0807	-0.15139781
2	0x3d95f2ad	0.07321677
3	0x3e0816b7	0.13289915
4	0x3e808d98	0.25108027
5	0xbcdb1a5b	-0.026745966
6	0x3d1f71df	0.038926955
7	0xbde400f5	-0.11132995
8	0x3e1d8509	0.1538278
9	0xbe3739c9	-0.17893137
